…
, 96)))","metadata":{"execution":{"iopub.status.busy":"2024-10-28T03:06:35.937959Z","iopub.execute_input":"2024-10-28T03:06:35.938359Z","iopub.status.idle":"2024-10-28T03:06:35.996754Z","shell.execute_reply.started":"2024-10-28T03:06:35.938311Z","shell.execute_reply":"2024-10-28T03:06:35.995713Z"},"trusted":true},"execution_count":22,"outputs":[{"name":"stdout","text":"----------------------------------------------------------------\n        Layer (type)               Output Shape         Param #\n================================================================\n            Conv2d-1           [-1, 32, 96, 96]             320\n       BatchNorm2d-2           [-1, 32, 96, 96]              64\n         MaxPool2d-3           [-1, 32, 48, 48]               0\n           Dropout-4           [-1, 32, 48, 48]               0\n            Conv2d-5           [-1, 64, 48, 48]          18,496\n       BatchNorm2d-6           [-1, 64, 48, 48]             128\n         MaxPool2d-7           [-1, 64, 24, 24]               0\n           Dropout-8           [-1, 64, 24, 24]               0\n            Conv2d-9          [-1, 128, 24, 24]          73,856\n      BatchNorm2d-10          [-1, 128, 24, 24]             256\n        MaxPool2d-11          [-1, 128, 12, 12]               0\n          Dropout-12          [-1, 128, 12, 12]               0\n           Conv2d-13          [-1, 256, 12, 12]         295,168\n      BatchNorm2d-14          [-1, 256, 12, 12]             512\n        MaxPool2d-15            [-1, 256, 6, 6]               0\n          Dropout-16            [-1, 256, 6, 6]               0\n           Conv2d-17            [-1, 512, 6, 6]       1,180,160\n      BatchNorm2d-18            [-1, 512, 6, 6]           1,024\n        MaxPool2d-19            [-1, 512, 3, 3]               0\n          Dropout-20            [-1, 512, 3, 3]               0\n           Conv2d-21           [-1, 1024, 3, 3]       4,719,616\n      BatchNorm2d-22           [-1, 1024, 3, 3]           2,048\n          Dropout-23           [-1, 1024, 3, 3]               0\n           Linear-24                 [-1, 3072]      28,314,624\n      BatchNorm1d-25                 [-1, 3072]           6,144\n          Dropout-26                 [-1, 3072]               0\n           Linear-27                 [-1, 1024]       3,146,752\n          Dropout-28                 [-1, 1024]               0\n           Linear-29                    [-1, 2]           2,050\n================================================================\nTotal params: 37,761,218\nTrainable params: 37,761,218\nNon-trainable params: 0\n----------------------------------------------------------------\nInput size (MB): 0.04\nForward/backward pass size (MB): 11.20\nParams size (MB): 144.05\nEstimated Total Size (MB): 155.28\n-------------------------------------------------------------
…
